model_NN.ckpt (torch, 35999 bytes, 4 tensors)

fc1.weight f4 [64, 128]
000000 b6 a8 33 be bc 02 23 be 80 7d 40 be d6 14 29 be
       -0.17544827 -0.15919012 -0.18797874 -0.16511855
000010 0d b1 26 be 47 cd 6a be c6 15 80 be ae af 82 be
       -0.16278477 -0.2292987 -0.25016612 -0.25524658
000020 ee fb 8b be 1b 2a 1a be 68 a5 28 be 13 bf 26 be
       -0.27340645 -0.15055124 -0.16469347 -0.16283827
000030 9f 0f 90 be a8 0a 37 be 90 40 8d be bd 67 5a be
       -0.28136918 -0.17875159 -0.2758832 -0.21328636
000040 d7 6e 31 be c0 ee e2 bd ab 24 0a be e5 14 f1 bd
       -0.17327438 -0.11080694 -0.1349055 -0.117715634
000050 04 8a 14 be 9e ac ee bd f4 4f 20 be 56 41 6a be
       -0.14505774 -0.11654018 -0.156555 -0.22876486
000060 69 54 8c be df 1d 89 be 35 e2 85 be 3f 82 6e be
       -0.2740815 -0.26780602 -0.26149145 -0.23291872
000070 65 a9 8c be f5 9e 5a be cc 1f 83 be c3 70 87 be
       -0.27472988 -0.213497 -0.25610197 -0.26453218
000080 6d f8 46 be 1d 78 1f be 5d 03 33 be 9d 91 e8 bd
       -0.19430704 -0.15573163 -0.17481752 -0.113558985
000090 9c 99 00 be c0 90 63 be 61 b2 54 be 68 7a 85 be
       -0.12558597 -0.22223186 -0.20771171 -0.2606995
0000a0 82 d5 1b be 26 d2 82 be 48 ac 1a be 44 15 50 be
       -0.15218166 -0.25550956 -0.15104783 -0.20320612
0000b0 4d 71 10 be bb 8d 43 be 58 d1 15 be 94 77 81 be
       -0.14105721 -0.19097035 -0.1463064 -0.25286543
0000c0 4f 5c 81 be bc 20 6a be 0f 52 7e be b8 ca 03 be
       -0.25265738 -0.2286405 -0.2483599 -0.128703
0000d0 9e eb 8e be 1a c7 2c be 1d 03 fc bd 98 80 27 be
       -0.27914137 -0.16872826 -0.12305281 -0.16357648
0000e0 20 0f 43 be 4a c9 fe bd ef 08 2d be c0 46 ed bd
       -0.19048738 -0.124407366 -0.16897939 -0.1158576
0000f0 51 2d 87 be f3 af 88 be 08 8f 0e be da 12 8a be
       -0.2640176 -0.2669674 -0.1392175 -0.26967508
000100 a6 b2 70 be b3 40 07 be d3 80 84 be 7b 02 72 be
       -0.23505649 -0.13208275 -0.25879535 -0.23633759
000110 64 78 68 be 16 80 fb bd 77 c6 38 be 1b 6f 13 be
       -0.22702175 -0.1228029 -0.18044458 -0.14397852
000120 ec a0 2d be 7a 8b 38 be 48 5a 52 be 19 07 0c be
       -0.16955918 -0.18021956 -0.20542252 -0.13674583
000130 77 4a 61 be e2 ff fc bd ac 37 26 be 7e b0 14 be
       -0.22001062 -0.12353493 -0.16232175 -0.14520451
000140 c8 26 03 be ab a4 93 be c8 9b 65 be 62 0f 02 be
       -0.12807763 -0.2883657 -0.22422707 -0.1270118
000150 80 74 6a be bf 60 05 be 18 45 09 be 01 48 38 be
       -0.22896004 -0.13025187 -0.13405263 -0.17996217
000160 b3 7e f5 bd 21 a9 3b be e7 7d 0f be ca 77 25 be
       -0.119870566 -0.18326236 -0.14012872 -0.16158977
000170 6a 76 88 be db 20 7d be 1d 56 38 be b1 b7 11 be
       -0.26652843 -0.24719565 -0.180016 -0.14230229
000180 32 19 27 be 9c 48 0d be 49 f7 8d be 4d 85 85 be
       -0.16318205 -0.1379723 -0.27727726 -0.26078263
000190 d5 a5 4f be 3f 28 49 be 5e e3 92 be 7d 4e 4d be
       -0.20278104 -0.19644259 -0.28689092 -0.20049472
0001a0 b3 82 82 be a0 0f 72 be 00 fc 53 be e9 7e 7d be
       -0.2549034 -0.23638773 -0.20701599 -0.24755444
0001b0 8b ec 57 be 2a c8 10 be 87 d9 19 be ef 08 3f be
       -0.21086328 -0.14138857 -0.15024386 -0.18655752
0001c0 78 bb 19 be bf 04 18 be dd a8 d7 bd 39 a8 1e be
       -0.1501292 -0.1484556 -0.10530255 -0.1549386
0001d0 76 f9 f6 bd ee 39 0c be 58 e7 52 be 36 41 85 be
       -0.120593 -0.13693973 -0.20596063 -0.26026314
0001e0 64 48 55 be fb f3 45 be 75 4f 8b be 2a c4 3f be
       -0.20828396 -0.19331352 -0.27209058 -0.18727174
0001f0 39 56 8d be e4 7e 0a be 54 62 14 be 66 21 63 be
       -0.27604845 -0.13524967 -0.14490634 -0.22180709
000200 84 9e 7d be 5d 3f b8 be c1 0b a9 be d4 14 9e be
       -0.247675 -0.35985842 -0.3301678 -0.30875266
000210 5d 40 88 be 48 89 a1 be c3 96 af be 88 1a 8a be
       -0.26611605 -0.3155005 -0.3429471 -0.26973367
000220 18 01 b0 be 7d c0 64 be 33 24 a2 be 7c 25 89 be
       -0.34375834 -0.22339053 -0.31668243 -0.2678641
000230 4d 88 99 be 05 8f b3 be 49 70 75 be 29 8f 73 be
       -0.29986802 -0.35070053 -0.23968615 -0.2378508
000240 b1 52 6d be 8c c9 b8 be 3b 06 99 be 7e 8f a5 be
       -0.23176076 -0.36091268 -0.29887566 -0.32336038
000250 8f 2f 83 be 1b b0 c3 be a4 4e b7 be 53 a2 78 be
       -0.25622222 -0.38220295 -0.35802186 -0.24280672
000260 0e a0 82 be 0f 22 70 be f2 e4 a9 be 5c 7f b5 be
       -0.25512737 -0.23450492 -0.33182484 -0.3544873
000270 55 db 90 be 9c 62 91 be e5 e8 80 be 3f f2 98 be
       -0.28292337 -0.28395545 -0.25177684 -0.2987232
000280 1c 6f 95 be 73 41 b1 be 19 6f 65 be 20 5d b8 be
       -0.29186332 -0.34620246 -0.22405662 -0.3600855
000290 3c 30 8d be 3c 29 b6 be 87 6a be be 7a 34 84 be
       -0.27575862 -0.35578334 -0.3719065 -0.25821286
0002a0 3c f4 7e be 27 19 84 be cb 3e ac be b2 2b 7e be
       -0.24897856 -0.2580044 -0.33641657 -0.24821356
0002b0 4e 6a 86 be 26 a6 9d be 84 fd 92 be 25 f1 79 be
       -0.2625298 -0.30790824 -0.28709042 -0.24408396
0002c0 fc 84 8e be b1 21 aa be 62 3d a8 be b2 d9 bb be
       -0.27835834 -0.3322883 -0.3285933 -0.36689526
0002d0 59 13 64 be e9 75 b2 be 08 35 89 be f3 ef 5a be
       -0.22273006 -0.34855583 -0.26798272 -0.21380596
0002e0 e2 6c 83 be 45 52 62 be 42 da ac be 5a 7c 81 be
       -0.25669008 -0.22101696 -0.33760267 -0.25290185
0002f0 1e cf 8b be 15 80 77 be 6b 79 a4 be 29 10 a5 be
       -0.27306455 -0.24169953 -0.32123885 -0.32238892
000300 ec b7 b4 be fd 77 8d be eb 4e 90 be cd d6 a4 be
       -0.3529657 -0.27630606 -0.2818521 -0.3219513
000310 4e a3 b7 be ea bd 71 be c4 11 9d be 23 f7 92 be
       -0.3586678 -0.23607603 -0.30677617 -0.28704175
000320 8f 9f a1 be 79 d5 7b be f1 33 c2 be 9a 12 85 be
       -0.31567046 -0.24593152 -0.37930253 -0.25990754
000330 0f a3 c1 be 68 bf a0 be d8 11 94 be 72 48 bf be
       -0.37819716 -0.3139603 -0.28919864 -0.3735996
000340 5b 28 b5 be 9b 7c 6a be 29 38 b1 be b5 ab ac be
       -0.3538235 -0.22899096 -0.3461316 -0.33724752
000350 4e 2a 8a be b0 db 94 be 0c b9 81 be 46 0e bd be
       -0.269854 -0.29073858 -0.25336492 -0.36924952
000360 3e 84 95 be d1 ae 61 be 12 27 af be cc 5c 9d be
       -0.29202455 -0.22039343 -0.34209496 -0.3073486
000370 6c b9 77 be 4f d5 9c be 99 90 ad be a7 6f 8b be
       -0.24191827 -0.30631492 -0.33899382 -0.2723362
000380 34 2e a1 be 3c 86 77 be 61 40 a6 be 17 2d 72 be
       -0.31480563 -0.241723 -0.32470992 -0.23650013
000390 8e dc 8a be d0 f2 7c be 55 2c c1 be b5 d4 95 be
       -0.27121395 -0.24702 -0.37729135 -0.29263845
0003a0 82 2f a3 be 41 a5 6a be 68 51 c1 be 31 72 87 be
       -0.31872183 -0.22914602 -0.3775742 -0.2645431
0003b0 ce fe b7 be d7 84 80 be 9d 84 94 be ea b2 bc be
       -0.35936588 -0.2510135 -0.29007426 -0.3685525
0003c0 07 5e bc be 07 6e 6b be 0e 76 b8 be fb 90 82 be
       -0.36790487 -0.22991191 -0.3602757 -0.25501236
0003d0 e8 89 b7 be 0a 6a 95 be 1b 6a 88 be 8c c8 5b be
       -0.35847402 -0.29182464 -0.26643452 -0.21463221
0003e0 21 3e 9b be 6b f7 c1 be 6a aa 79 be 85 4e 8a be
       -0.30320838 -0.37884077 -0.24381414 -0.2701303
0003f0 d2 e9 8f be 6a ab c2 be 84 70 5d be 27 1c 9e be
       -0.28108078 -0.38021404 -0.21624953 -0.30880854

fc1.bias f4 [64]
000000 72 f8 17 be fd 07 48 be 94 69 23 be 41 2b f3 bd
       -0.14840868 -0.19534297 -0.15958244 -0.118734844
000010 a2 26 97 bc 14 bf 8f bd 54 c5 8c be db 33 af bd
       -0.018451039 -0.07018867 -0.274943 -0.085548125
000020 a7 3a 76 bd f5 12 6a be 30 a9 99 bd 3a 4a 5f be
       -0.06011453 -0.22858794 -0.07502973 -0.21805659
000030 3d b6 15 be 75 6b 06 be 23 14 f8 bd 59 09 0f be
       -0.146203 -0.13126929 -0.12113216 -0.1396841
000040 4e 57 e5 bc 76 3f 69 be 88 56 a7 bc 63 65 60 bd
       -0.027995732 -0.22778115 -0.020427004 -0.05478419
000050 10 78 d8 ba 69 a4 86 be fc d1 22 bd 25 15 71 be
       -0.0016515274 -0.2629731 -0.039751038 -0.23543222
000060 7e 22 30 bd 6e 8c 96 bd 29 7b 12 be 09 9f a1 bd
       -0.043001644 -0.073510036 -0.14304794 -0.07891662
000070 24 60 eb bd c8 e5 50 bd a5 76 ab 11 06 b5 7d be
       -0.11492947 -0.051000386 2.7052163e-28 -0.24776086
000080 ff c4 c2 bd f1 00 96 bd 0e 30 5b be 1a c2 64 be
       -0.0951023 -0.07324398 -0.2140505 -0.22339669
000090 65 03 17 ba ab d5 8a bd 53 2f 3a be 2d 66 3c be
       -0.00057606987 -0.06779035 -0.18182115 -0.18398352
0000a0 a4 4c f4 bd 30 44 b1 bd 35 79 16 be 3a ab 5c be
       -0.119286805 -0.08655584 -0.14694674 -0.21549693
0000b0 c2 a6 12 be fc eb 9a bd 24 63 63 bd 5d 93 48 be
       -0.14321426 -0.07564542 -0.05551447 -0.19587465
0000c0 46 d4 8d be 9f af 81 be 5d e8 ac bd c9 bd 94 be
       -0.27701014 -0.253293 -0.08442757 -0.29051045
0000d0 8a b6 80 bc 5a f4 5b be 46 6f 19 be f5 8d 9d be
       -0.015712041 -0.21479931 -0.14983854 -0.30772367
0000e0 90 b2 8b be 4f 70 bd bd 58 2a b6 bd ac cc 1a be
       -0.2728467 -0.09249937 -0.08894795 -0.15117139
0000f0 d4 ab 04 be 26 05 40 bd 6c f2 50 be 40 c8 12 be
       -0.12956172 -0.04687991 -0.20404977 -0.14334202

fc2.weight f4 [6, 64]
000000 b3 61 b1 3e 70 a8 d8 3e 86 25 72 3c 87 6f 5e 3e
       0.3464485 0.42316008 0.014779454 0.21722232
000010 9c 06 89 3e fa 71 5f 3e 98 32 8d 3e 1e d0 a8 3e
       0.26762855 0.21820822 0.27577662 0.3297128
000020 39 32 da bc e8 f1 66 3e bb 07 49 3e fa 62 3e 3e
       -0.026635276 0.22553217 0.19631855 0.18592444
000030 33 87 d2 bb bd 3c 83 3d dd 48 12 3e 21 ef 97 3e
       -0.0064248084 0.06408069 0.14285608 0.29674628
000040 b1 db d6 3e 3d 11 92 3e 67 23 78 3e 17 ee 43 3e
       0.41964486 0.28528777 0.24232255 0.19133793
000050 8a 67 8a 3e 8d cc 49 bd db 13 90 3e 3b 64 ed 3d
       0.2703212 -0.04926734 0.2814015 0.11591383
000060 82 d5 7b 3e c1 58 80 3e 65 6e 44 3e 54 98 d4 3e
       0.24593166 0.25067714 0.19182737 0.41522467
000070 81 57 92 3e 95 a9 9e 3e 5b 90 86 3e bc e4 85 3e
       0.28582385 0.30988756 0.2628201 0.26151073
000080 46 b2 91 3e 86 20 98 3e ce 79 65 3e a8 5c cc 3e
       0.28456324 0.29712313 0.22409746 0.3991444
000090 06 df 6f 3e 2f 42 8d 3e 9a c9 a7 3d bd 10 ba 3e
       0.2342492 0.27589557 0.08192749 0.36340895
0000a0 a5 12 8f 3d 56 2b 82 3e 69 92 74 3e fa 7a ea 3e
       0.06985978 0.25423688 0.23883976 0.4579695
0000b0 df 7f b2 3e 13 6f 56 3e 34 62 8f 3e e9 bd d4 3e
       0.34863183 0.20940809 0.2800461 0.4155114
0000c0 12 fa a8 3e c3 6c e0 3e ba f5 d5 3e 75 34 86 3e
       0.33003289 0.4383298 0.41789037 0.26211897
0000d0 34 14 c2 3e 80 d6 64 3e b8 5a 79 3e 67 93 78 3e
       0.3790604 0.2234745 0.24351013 0.2427498
0000e0 c5 e9 cf 3d 5c c6 8a 3e e0 6f 57 3e d6 b6 5e 3e
       0.1015201 0.2710446 0.2103877 0.21749434
0000f0 3d 65 63 3e 46 c1 81 3e a1 52 52 3e 91 ab 85 3e
       0.22206588 0.25342768 0.20539333 0.26107457
000100 c6 e2 92 3e 5d 1f 3d be 8f 1b df 3e 0a 91 ad be
       0.2868864 -0.18468995 0.43575713 -0.3389972
000110 da a8 88 3e 06 81 8e 3e a8 82 c0 3e 33 5e a9 3e
       0.26691324 0.27832812 0.37599683 0.3307968
000120 33 6f ed 3a 0e 2c 7c be 0a eb a6 be 3d 7a 4a be
       0.0018114805 -0.2462618 -0.32601196 -0.19773193
000130 6e 5f ac 3a 40 7d ad 3c fc 93 d3 3e a2 55 6c 3e
       0.0013150999 0.021177888 0.4132384 0.23079541
000140 be 29 76 be f1 e1 51 be 72 d8 94 3e 09 6d b3 be
       -0.24039361 -0.20496346 0.29071385 -0.35044125
000150 ea b7 96 3e 0e 2b 55 bd 2d eb 8c 3e 96 85 c6 3e
       0.2943719 -0.052043013 0.27523175 0.38773793
000160 4c bb 8d 3e 0d bd 81 3e 95 44 ff 3e e7 bc ab 3e
       0.2768196 0.25339547 0.4985701 0.3354256
000170 e3 4f 8c 3e 14 74 b1 3e fe a9 9a be 22 8a a7 3e
       0.274047 0.34658873 -0.3020782 0.32722574
000180 48 82 f7 bd 6e 6c 78 3e 9a e0 79 be 16 90 a4 3e
       -0.12085396 0.24260113 -0.24402085 0.3214118
000190 97 db 7d 3e fe c5 92 3e c8 c9 42 3d bc 55 ba 3e
       0.24790798 0.2866668 0.047555715 0.36393535
0001a0 5b 87 d4 3e fc 0e 79 3e bb 0a 90 be 3f ef d4 3e
       0.41509518 0.24322122 -0.28133187 0.4158878
0001b0 12 e4 5e be b6 02 aa be 27 53 86 3e 29 8c 4b be
       -0.2176669 -0.33205193 0.26235315 -0.19877686
0001c0 4e 23 5d 3e d8 e7 92 3e 42 cf 07 3e 63 87 65 be
       0.21595499 0.28692508 0.13262656 -0.22414927
0001d0 64 5b 86 be b9 93 58 3e d2 e9 79 3e 0f da 5f be
       -0.262416 0.21150102 0.24405602 -0.21860527
0001e0 c5 e4 e4 3e 65 d9 6f 3e 71 17 82 3e e5 07 76 3e
       0.44705787 0.23422773 0.2540851 0.24026449
0001f0 d7 33 82 be ec 65 8b 3e da 97 90 3e b0 15 75 be
       -0.25430176 0.27226198 0.28240854 -0.23934054
000200 1d 20 d2 3d 65 09 94 3e 95 d6 f3 3e 9e 3a 6d 3e
       0.10260031 0.28913417 0.4762465 0.23166892
000210 97 71 96 3e 65 4e 73 3e b4 c5 75 bd c8 59 6f bd
       0.29383537 0.23760374 -0.060002998 -0.05843523
000220 7b 60 1b 3f 41 fc b3 3e d9 58 7e 3e a4 ed 90 3e
       0.6069409 0.35153392 0.2483858 0.28306305
000230 14 15 0e 3f 36 44 10 3f 7e d8 9c 3e f2 cd bb bd
       0.5550091 0.5635408 0.3063392 -0.0917014
000240 ec ec a4 3e 7a 94 93 3e a9 59 61 3e 4c b3 8e 3e
       0.32212007 0.28824216 0.22006859 0.27871168
000250 af 91 8c 3e 6e e8 3d 3e bf 98 7d be 49 df 00 3f
       0.27454898 0.18545696 -0.247653 0.50340706
000260 cc e0 88 3e 09 26 80 3e 6b 64 b3 3e 98 2c 77 3e
       0.26734006 0.2502902 0.3503755 0.24138105
000270 31 ad 6d 3e 5c dd 66 be 00 0f fb 3d f3 e9 03 3d
       0.23210599 -0.2254538 0.122587204 0.032205533
000280 e5 f4 85 3e 47 39 88 3e 89 e4 9a 3e ea cd 81 3e
       0.26163402 0.266062 0.30252483 0.25352412
000290 03 b0 66 3e a2 e4 80 be b9 e7 0d 3f 03 87 8d 3c
       0.2252808 -0.25174433 0.55431706 0.017276293
0002a0 1b 5e d1 3e 29 53 6f 3e c3 0c af 3e 77 e2 8d 3e
       0.4089211 0.23371567 0.34189424 0.2771184
0002b0 99 73 aa 3e a8 22 5c 3e 3c e7 74 be ae f4 9c 3e
       0.3329132 0.21497595 -0.23916334 0.30655426
0002c0 23 d0 8f bd 45 3a bf bd 7b a5 a0 bd fc 80 39 3e
       -0.07022121 -0.09337286 -0.07844063 0.1811561
0002d0 41 38 ba 3e 0d f9 31 3e b6 6a 7c be 4f 4a 61 3e
       0.36371043 0.17380162 -0.24650082 0.22001003
0002e0 82 49 f9 3e 4e 5a 83 3e 03 85 8c be 71 8d 76 be
       0.48688895 0.25654835 -0.2744523 -0.24077393
0002f0 74 df c0 3e 5d d5 84 3e 2e 51 57 be 72 ec cc 3e
       0.3767048 0.25944033 -0.21027061 0.40024143
000300 6c 53 7a 3e 42 03 45 3e 93 fd 16 3b 72 41 a0 3e
       0.24445885 0.19239524 0.0023039326 0.3129993
000310 e0 f7 7f 3e 34 29 8e 3e f0 29 1a 3f 59 a7 98 3e
       0.249969 0.2776581 0.6022024 0.29815176
000320 89 2e 18 bd e2 05 3d 3e dc 06 ac 3e 31 cd 40 3e
       -0.037153754 0.18459275 0.33598983 0.18828274
000330 de 4a 48 bd f0 8c 2d bd 45 f3 f9 3e f2 c9 08 3f
       -0.048899524 -0.042370737 0.48818412 0.53433144
000340 de 6c a7 3e 49 14 8e 3e 24 f4 99 3e 2a 88 bd 3e
       0.32700247 0.2774985 0.30069077 0.37017947
000350 b8 11 7a 3e 1e d2 8e bc 6a 36 76 3e 07 99 01 3d
       0.24420822 -0.017434176 0.24044195 0.03164008
000360 7d f4 6f 3e 0c cf 89 3e 5b cc d6 3e e5 c8 b0 3e
       0.23433109 0.26915777 0.41952786 0.3452827
000370 3c 45 77 3e f3 98 80 3e fa 4d 4f 00 e5 78 83 3e
       0.24147505 0.2511669 7.282977e-39 0.25678173
000380 67 62 de bd 0c 68 95 3e 06 8a c9 3e e9 be 9e 3e
       -0.108586125 0.29180944 0.39363116 0.31005028
000390 98 49 85 3e c3 b9 44 3e 02 a6 82 bb 9b 8e 2e 3f
       0.2603271 0.19211487 -0.003987075 0.6818635
0003a0 fd de 41 3d 6c b6 69 3e 49 26 5d 3e 4e e7 c8 3e
       0.0473318 0.22823495 0.21596636 0.3923897
0003b0 6e 0e 74 3e 2d 80 b4 3e 05 01 82 3e 38 a2 66 3e
       0.2383363 0.3525404 0.25391403 0.22522819
0003c0 8c b4 f1 3e 3f 44 af 3e 09 1f f3 3e bc 6c 97 3e
       0.4720806 0.34231755 0.47484615 0.29575145
0003d0 26 b9 71 3e 80 34 ee 3d ab 00 77 3e 34 24 4a 3e
       0.23605785 0.11631107 0.24121349 0.19740373
0003e0 a8 21 88 3d 2a 6b 6f 3e 9b e6 77 3e 5f 8c 85 3e
       0.066470444 0.23380724 0.24209063 0.26083657
0003f0 26 93 cb 3e e7 3a 91 3e a6 ac 93 3e d4 7e c4 3e
       0.39760703 0.2836525 0.28842658 0.38378012

fc2.bias f4 [6]
000000 30 47 32 3f fc dd 04 3d 93 a5 d5 3d 14 00 f6 bd
       0.69639874 0.032438263 0.104319714 -0.12011734
000010 bf 3f 76 be 12 8c e0 bd
       -0.24047755 -0.10964216
